…
[2025-06-12 18:27:51,795::test::INFO] [ARGS::dataset_path] '/root/autodl-tmp/ShapeNetCore.v2/ShapeNetCore.v2/'
[2025-06-12 18:27:51,795::test::INFO] [ARGS::batch_size] 128
[2025-06-12 18:27:51,795::test::INFO] [ARGS::sample_num_points] 2048
[2025-06-12 18:27:51,795::test::INFO] [ARGS::normalize] 'shape_bbox'
[2025-06-12 18:27:51,795::test::INFO] [ARGS::seed] 9988
[2025-06-12 18:27:51,795::test::INFO] [ARGS::tag] 'fm'
[2025-06-12 18:27:52,780::test::INFO] Loading datasets...
[2025-06-12 18:29:03,075::test::INFO] Loading model...
[2025-06-12 18:29:03,306::test::INFO] FlowMatch(
  (encoder): PointNetEncoder(
    (conv1): Conv1d(3, 128, kernel_size=(1,), stride=(1,))
    (conv2): Conv1d(128, 128, kernel_size=(1,), stride=(1,))
    (conv3): Conv1d(128, 256, kernel_size=(1,), stride=(1,))
    (conv4): Conv1d(256, 512, kernel_size=(1,), stride=(1,))
    (bn1): BatchNorm1d(128, eps=1e-05, momentum=0.1, affine=True, track_running_stats=True)
    (bn2): BatchNorm1d(128, eps=1e-05, momentum=0.1, affine=True, track_running_stats=True)
    (bn3): BatchNorm1d(256, eps=1e-05, momentum=0.1, affine=True, track_running_stats=True)
    (bn4): BatchNorm1d(512, eps=1e-05, momentum=0.1, affine=True, track_running_stats=True)
    (fc1_m): Linear(in_features=512, out_features=256, bias=True)
    (fc2_m): Linear(in_features=256, out_features=128, bias=True)
    (fc3_m): Linear(in_features=128, out_features=256, bias=True)
    (fc_bn1_m): BatchNorm1d(256, eps=1e-05, momentum=0.1, affine=True, track_running_stats=True)
    (fc_bn2_m): BatchNorm1d(128, eps=1e-05, momentum=0.1, affine=True, track_running_stats=True)
    (fc1_v): Linear(in_features=512, out_features=256, bias=True)
    (fc2_v): Linear(in_features=256, out_features=128, bias=True)
    (fc3_v): Linear(in_features=128, out_features=256, bias=True)
    (fc_bn1_v): BatchNorm1d(256, eps=1e-05, momentum=0.1, affine=True, track_running_stats=True)
    (fc_bn2_v): BatchNorm1d(128, eps=1e-05, momentum=0.1, affine=True, track_running_stats=True)
  )
  (flow): SequentialFlow(
    (chain): ModuleList(
      (0-13): 14 x CouplingLayer(
        (net_s_t): Sequential(
          (0): Linear(in_features=128, out_features=256, bias=True)
          (1): ReLU(inplace=True)
          (2): Linear(in_features=256, out_features=256, bias=True)
          (3): ReLU(inplace=True)
          (4): Linear(in_features=256, out_features=256, bias=True)
        )
      )
    )
  )
  (diffusionUnet): PointwiseNet(
    (layers): ModuleList(
      (0): ConcatSquashLinear(
        (_layer): Linear(in_features=3, out_features=128, bias=True)
        (_hyper_bias): Linear(in_features=259, out_features=128, bias=False)
        (_hyper_gate): Linear(in_features=259, out_features=128, bias=True)
      )
      (1): ConcatSquashLinear(
        (_layer): Linear(in_features=128, out_features=256, bias=True)
        (_hyper_bias): Linear(in_features=259, out_features=256, bias=False)
        (_hyper_gate): Linear(in_features=259, out_features=256, bias=True)
      )
      (2): ConcatSquashLinear(
        (_layer): Linear(in_features=256, out_features=512, bias=True)
        (_hyper_bias): Linear(in_features=259, out_features=512, bias=False)
        (_hyper_gate): Linear(in_features=259, out_features=512, bias=True)
      )
      (3): ConcatSquashLinear(
        (_layer): Linear(in_features=512, out_features=256, bias=True)
        (_hyper_bias): Linear(in_features=259, out_features=256, bias=False)
        (_hyper_gate): Linear(in_features=259, out_features=256, bias=True)
      )
      (4): ConcatSquashLinear(
        (_layer): Linear(in_features=256, out_features=128, bias=True)
        (_hyper_bias): Linear(in_features=259, out_features=128, bias=False)
        (_hyper_gate): Linear(in_features=259, out_features=128, bias=True)
      )
      (5): ConcatSquashLinear(
        (_layer): Linear(in_features=128, out_features=3, bias=True)
        (_hyper_bias): Linear(in_features=259, out_features=3, bias=False)
        (_hyper_gate): Linear(in_features=259, out_features=3, bias=True)
      )
    )
  )
)
[2025-06-12 18:30:26,733::test::INFO] Normalization mode: shape_bbox
[2025-06-12 18:30:26,768::test::INFO] Saving point clouds...
[2025-06-12 18:34:19,524::test::INFO] lgan_mmd-CD: 0.004795827437
[2025-06-12 18:34:19,524::test::INFO] lgan_cov-CD: 0.255681812763
[2025-06-12 18:34:19,524::test::INFO] lgan_mmd_smp-CD: 0.003948145080
[2025-06-12 18:34:19,524::test::INFO] 1-NN-CD-acc_t: 0.825757563114
…
